data.pth (torch, 4631 bytes, 6 tensors)

l1.weight f4 [8, 43]
00000000: a25a b93d ada0 193d 9da0 7abe d149 1ebe
00000010: aba3 113f 8a10 773e 349b 9ebe 0dd4 d4be
00000020: 3ea7 59be 6930 d8bd 4ced 073f 1101 d5be
00000030: 6352 afbe c0bc d4be 3bca d4be 852d e6bd
00000040: daa7 5d3c 5ae4 653f e599 0a3f 3c9c 913e
00000050: 3def 03be d2f5 e53d ac23 cfbe 5bb1 663f
00000060: 92e8 59be bc95 013f 13af 39bf 9665 403f
00000070: acc2 65be 63b4 9e3e d5b0 463d 592d 0d3f
00000080: 5aef 08bd dec4 d4be 003b 27be 25aa 4fbe
00000090: 83ee 3cbe bcf4 783d f32a d23e b25d 45be
000000a0: 77f8 e63e 4e2d fcbb b4da 1d3f 8fb0 d73d
000000b0: b755 a53d 0fd8 96be 40f6 aebd d3ad 343f
000000c0: 7686 ce3e 60f1 63be 46cd 6b3f 892f 6ebf
000000d0: fa6c 88bd 0444 283f bc33 c5be b669 47be
000000e0: 2ab5 e7be 5659 d1be 711a afbe ceb0 a03e
000000f0: 197a 67bc d7b2 b33e 6394 c03e c935 ad3d
00000100: 0bf1 0f3e 271b b3be c096 443f 8b86 193f
00000110: 6c02 633e 1ebc 10bd c494 043e 860d 053f
00000120: cdbd 693f ce3d 373e 687e ca3e 5ae9 693e
00000130: abb5 85be 50ff 25be 10c5 483f 920d 08bf
00000140: 0873 2c3e 15f3 823e 9028 2ebc 261c 8f3e
00000150: 905f 303d 74bc 243f 5951 d93e ba68 8b3e
00000160: d7a5 1fbd 2235 81be bb36 3a3f 60c0 bfbc
00000170: 3573 81be 32f0 02bf 65f6 02bf bdbf 81be
00000180: 758c 323f c204 03bf 7b2c be3e 39ee 02bf
00000190: 670a e9be 2b60 dfbd 9584 f0bc 27ee 7d3e
000001a0: c9d0 0b3f bb8f d53d c7e0 ac3e b8a1 8abd
000001b0: af2c e1bd 136d a6be 4f47 45be 98b5 dbbc
000001c0: 496b 99be 9913 983e 3d3c 45be 44d8 fbbe
000001d0: 9bbe 2e3e f6e7 aa3e 8593 9abd 821e 4c3f
000001e0: 733e f63e 5c30 a3be 7bde e5bb c6f4 c13d
000001f0: ec0c b8bd 33df 213c 723b 13be 2507 a03e
00000200: 7d7c e3bd 0ac4 253f 0639 af3e 865d 7ebe
00000210: d017 c1be b6d8 34bf 6ae8 ebbd 0644 9cbe
00000220: 899c 7f3f 9737 3cbf 0c0a a0be d6db 34bf
00000230: 3243 21bf ba7d da3e 1c7e 1ebf d912 28bf
00000240: a3f6 13bf dae7 393e ac16 023e 4b61 a6be
00000250: 4eca e4bd 121d d53e 2430 9b3e c873 aabc
00000260: 3392 72bf e243 f93e 2f8a 8bbd 0be9 543f
00000270: 684d 4b3d e44b 103f 839c 183f 83b1 153e
00000280: cd69 c2be fb84 323e 8183 723f f04a c93e
00000290: 385e 4e3f a16b f2be 8cd8 193e e9e4 23bf
000002a0: ab23 313f 4344 bdbe c9bd da3e 96e4 3bbf
000002b0: c240 1fbd 685d aab9 550c 99be 5967 893e
000002c0: c132 0cbf e5b0 ce3e c423 78be ad99 08bf
000002d0: ffd5 7e3f 1414 99be 7b31 0cbf 292d c6be
000002e0: 3047 6fbe b12f 01bf 2835 babe a90e 033e
000002f0: 364d 1d3f 0a7f 7c3f f6f3 e7bd 8b52 4f3e
00000300: bbd8 debb ccea c13e 0831 aa3e 5599 4b3f
00000310: 18e0 1bbe 848e ac3e d9e2 113f b3ba 4b3f
00000320: b544 29be 5093 583f 1464 d93e dae4 a1bd
00000330: dbec d33e f92b 0cbf 1acd 8cbe 14c1 c3be
00000340: e6b9 a5be 609b 2a3e 84b1 c53e ccba 183f
00000350: c2a7 a73e e3e0 b5be 1f5e 803e 31b2 11be
00000360: 9c37 63bd b814 5cbd f940 563e 4b58 32bf
00000370: 1e9a 3bbd 3124 b03e a4c4 1abf ed34 9a3f
00000380: b279 9f3e f757 32bf 0bf5 763e d7ca 81be
00000390: 2cf3 a33e f60e 923e 0a7b b03e 864b 323f
000003a0: b018 d93e 4098 adbe 5baa 093e dce8 12be
000003b0: ae7a 913e 4bbf a83e 1eb1 cbbc 2cad 95be
000003c0: 9e0e 6ebe 96de 113f d976 1e3f 7e07 a5be
000003d0: 6dab da3e 8546 be3e 35f5 8fbe 3bdf af3e
000003e0: e39c 21bf 9912 99be 23aa 84be 23c7 8cbd
000003f0: d086 943e 2b5e 2ebe 76c0 173f 8edb ec3e
0.0905049 0.037506748 -0.24475332 -0.15457846 0.5689036 0.24127403 -0.30977786 -0.41568032
-0.21255204 -0.105561085 0.5309646 -0.41602376 -0.34242544 -0.41550255 -0.4156054 -0.11239151
0.013528788 0.8980156 0.54141074 0.2843951 -0.12884231 0.11228527 -0.40456903 0.9011437
-0.21280125 0.506191 -0.7253277 0.7515501 -0.22437543 0.30997 0.048508484 0.5514732
-0.03343139 -0.41556448 -0.163311 -0.20279749 -0.1845036 0.060780272 0.41048393 -0.19274023
0.4511144 -0.0076958304 0.6166184 0.10531723 0.080729894 -0.29461715 -0.08543062 0.70577735
0.4033696 -0.22260046 0.921101 -0.9304128 -0.06661411 0.65728784 -0.38516033 -0.1947392
-0.45255405 -0.4088847 -0.3419986 0.3138489 -0.014128231 0.3509738 0.3761321 0.08457524
0.14056794 -0.34981653 0.76792526 0.5997092 0.22168893 -0.035335653 0.12947375 0.5197376
0.9130524 0.1789467 0.39549565 0.22842923 -0.26115164 -0.16210675 0.78425694 -0.53145707
0.16840756 0.25576082 -0.010629788 0.27951163 0.043059886 0.64350057 0.42444876 0.27228338
-0.038976517 -0.2523585 0.7273976 -0.023407161 -0.25283208 -0.5114776 -0.5115722 -0.25341597
0.6974557 -0.51179135 0.3714331 -0.5114475 -0.4551575 -0.109070145 -0.029360095 0.24797879
0.54615456 0.10427805 0.33765242 -0.06769127 -0.10994851 -0.32505092 -0.19265483 -0.02681999
-0.29964665 0.29702452 -0.1926126 -0.49188435 0.17064898 0.33380097 -0.07547668 0.7973405
0.4809452 -0.31872833 -0.007015047 0.09470515 -0.0898684 0.009879875 -0.14378145 0.3125545
-0.11107729 0.64752257 0.34223193 -0.24840364 -0.3771348 -0.70643175 -0.11518939 -0.30520648
0.9984823 -0.73522323 -0.31257665 -0.70647943 -0.62993157 0.42674047 -0.6191118 -0.6565376
-0.5779821 0.1815485 0.12703961 -0.32496104 -0.11171399 0.4162374 0.30310166 -0.020807162
-0.9475433 0.48684603 -0.06813466 0.83168095 0.049634367 0.563658 0.5961382 0.14618497
-0.37971345 0.1743354 0.9473191 0.39314985 0.80612516 -0.4734774 0.15024012 -0.64021164
0.6919505 -0.36966142 0.4272292 -0.7339567 -0.038880117 -0.0003249452 -0.2989222 0.2683666
-0.54764944 0.40369335 -0.24232394 -0.5335949 0.9954528 -0.2989813 -0.54763 -0.3870633
-0.23367 -0.50463396 -0.3636868 0.12798561 0.6144594 0.98631346 -0.11325829 0.20246331
-0.0068007386 0.37874448 0.33240533 0.7953084 -0.15222204 0.3370248 0.5698677 0.79581755
-0.16530116 0.8459978 0.42459166 -0.07904978 0.41391644 -0.54754597 -0.2750023 -0.38233244
-0.32368392 0.16660833 0.38611996 0.5966003 0.32745177 -0.35523137 0.2507181 -0.14228131
-0.055472955 -0.053730696 0.20923223 -0.69665974 -0.045801274 0.34402612 -0.604563 1.2047402
0.31147534 -0.69665474 0.24116914 -0.25350067 0.32021463 0.2852704 0.3446887 0.6964649
0.42401648 -0.3390522 0.13443892 -0.14346641 0.2841391 0.32958445 -0.02486473 -0.29233682
-0.23247764 0.56980264 0.619001 -0.3223228 0.42708912 0.37163177 -0.28116766 0.3435
-0.63130015 -0.29897 -0.25911054 -0.0687392 0.29009104 -0.1702811 0.5927805 0.46261257

l1.bias f4 [8]
00000000: 9fc4 d43e 859a 203f a9e7 023f 4cdf 343f
00000010: b932 0c3f a559 323f 3408 2c3f cfcf 813f
0.4155626 0.6273578 0.51134735 0.70653224 0.54764897 0.69668037 0.67200017 1.0141543

l2.weight f4 [8, 8]
00000000: 4aaf a03e ab7a aabe 43b5 79be 4d48 1abe
00000010: b9f1 61be c735 413e 427a 803e a9b4 a0be
00000020: 3035 733f c18e 783f 8d0b 42bf 85f6 6a3f
00000030: 0658 bb3f 5cd0 9e3f e758 f9be 43b7 30bf
00000040: 8174 623e 0986 283c f550 23be a7bc 063f
00000050: 4323 9a3f 2af3 8c3f 1771 24be 4073 51bf
00000060: 3ed8 47bf 9ef9 49bf 784c 56bf 6460 19bf
00000070: 0c0f 363e 6c31 7f3f ab80 3b3f 4da3 893f
00000080: 5eab 48be 4953 49be 2b41 a2be 539e 92bd
00000090: af86 b6be 3ac1 8abd 9dc9 a3b9 6e6d 173e
000000a0: 6efd 6cbf ec6d 863f 55ab a5bf 0754 943f
000000b0: 7f93 52bd 0f34 2b3e 635b 13bf 8d76 183f
000000c0: c8b5 42bf 82d9 1d3f a132 333f 62eb d73f
000000d0: adf5 19bf f6f2 04bf 4f9b 463f d907 e23e
000000e0: 74d7 743f 1ff2 ae3f d970 e63e bcd8 46bf
000000f0: 65d2 27be 51d9 48bf 9933 44bf 704e c93f
0.31383735 -0.33296713 -0.24385552 -0.15066643 -0.22064866 0.1886817 0.25093275 -0.31387833
0.9500303 0.97092825 -0.75798875 0.9178241 1.4636238 1.2407336 -0.4870064 -0.69029635
0.22114755 0.010285863 -0.15948851 0.5263161 1.2042011 1.1011708 -0.16058765 -0.8181648
-0.78064334 -0.7889651 -0.8371043 -0.59912705 0.17779177 0.99684787 0.73243207 1.075296
-0.19596621 -0.19660677 -0.31690344 -0.07159104 -0.3564963 -0.06775136 -0.00031239996 0.14787838
-0.92574203 1.0502295 -1.2942911 1.1588143 -0.051410194 0.16719078 -0.5756132 0.59555894
-0.76058626 0.61660016 0.6999913 1.6868708 -0.60140496 -0.5193323 0.7758073 0.44146612
0.95641255 1.366764 0.4500797 -0.7767446 -0.16388853 -0.784566 -0.7664123 1.5727062

l2.bias f4 [8]
00000000: 9b23 6cbe 8e9d 2b3e 322e c13e 3a8c 173f
00000010: a71a 20be 2bb3 2e3d 1c28 6c3f ea80 403f
-0.23060457 0.16759321 0.37730557 0.59198344 -0.15635167 0.042651337 0.922487 0.7519671

l3.weight f4 [8, 8]
00000000: e4e9 98be 3ae1 f5bc 92ad b9bf c2b1 abbf
00000010: 2306 f0bd 617b 983f 2b1d 6f3e cfbf d4bd
00000020: 93e7 0a3e 3689 883e 31fa d03e 9dc6 383f
00000030: 9041 0ebe df35 89bf 9a49 a0bf da23 8bbf
00000040: a26b 80be 5f66 19bf 4417 75bf 87c9 8ebf
00000050: 85da f33d 26af b2bf c9ed bd3d e15c 883f
00000060: 0d2b 8e3c 140d 45bf ccab 90bf bb36 a43f
00000070: d5b3 d7bd 9304 17be cb8f 80be 739f 9c3d
00000080: 654c 81be dfda 503f 78d3 1e3f 88c3 f3bf
00000090: 4b3f 763e bcdd f0bf 8c53 8fbf 6460 5bbf
000000a0: eae0 053c 52c6 203f 85c9 27bf ab12 8cbf
000000b0: 22f9 3f3e cb40 d1bd 5985 69bf 5208 eb3e
000000c0: cbbf 063e d74f 9e3e b87c 8a3e 03a2 7fbf
000000d0: 7fa1 9d3e a5d6 203f 7ab4 2abd 8e33 95bf
000000e0: 9d50 193e dc86 e4be aa1c 67bf ad50 b6bf
000000f0: 9b7d 1bbe 02e6 88bf edd1 993f 3b57 2ebf
-0.29865944 -0.030014623 -1.4506094 -1.3413622 -0.117199205 1.1912652 0.2335097 -0.10388147
0.13564901 0.26667184 0.4081588 0.7217806 -0.13892198 -1.0719565 -1.2522461 -1.0870316
-0.25082117 -0.5992183 -0.95738626 -1.1155251 0.11906914 -1.3959701 0.092738695 1.0653344
0.017354513 -0.7697308 -1.1302428 1.2829202 -0.10532347 -0.14747839 -0.25109705 0.076476
-0.25253597 0.8158397 0.62041426 -1.9044046 0.24047582 -1.8817668 -1.1197371 -0.85693955
0.0081712995 0.6280261 -0.6554187 -1.0943197 0.1874738 -0.102174364 -0.912191 0.45904785
0.131591 0.30920288 0.27048278 -0.99856585 0.30787274 0.6282752 -0.041676022 -1.1656358
0.14972158 -0.4463414 -0.9027811 -1.424337 -0.15184633 -1.0695193 1.2017189 -0.68101853

l3.bias f4 [8]
00000000: 4f9f dbbe 49be adbe 2931 09be 12c2 933d
00000010: 2609 963e 8236 f6be 7c7a f2be e0f3 0a3e
-0.4289498 -0.3393424 -0.1339766 0.0721475 0.29303855 -0.4808846 -0.47359073 0.13569593
